…
I1126 21:27:14.469965 19980 solver.cpp:67] Creating training net from net file: /home/leon/enas907/proj/train_val.prototxt
I1126 21:27:14.470170 19980 net.cpp:275] The NetState phase (0) differed from the phase (1) specified by a rule in layer data
I1126 21:27:14.470185 19980 net.cpp:275] The NetState phase (0) differed from the phase (1) specified by a rule in layer accuracy
I1126 21:27:14.470252 19980 net.cpp:39] Initializing net from parameters: 
name: "Process Monitor"
layers {
  top: "data"
  top: "label"
  name: "data"
  type: HDF5_DATA
  hdf5_data_param {
    source: "/home/leon/enas907/proj/data/train.txt"
    batch_size: 10
  }
  include {
    phase: TRAIN
  }
}
layers {
  bottom: "data"
  top: "fc1"
  name: "fc1"
  type: INNER_PRODUCT
  blobs_lr: 1
  blobs_lr: 2
  weight_decay: 1
  weight_decay: 0
  inner_product_param {
    num_output: 40
    weight_filler {
      type: "gaussian"
      std: 0.01
    }
    bias_filler {
      type: "constant"
      value: 0
    }
  }
}
layers {
  bottom: "fc1"
  top: "fc1"
  name: "relu1"
  type: RELU
}
layers {
  bottom: "fc1"
  top: "fc2"
  name: "fc2"
  type: INNER_PRODUCT
  blobs_lr: 1
  blobs_lr: 2
  weight_decay: 1
  weight_decay: 0
  inner_product_param {
    num_output: 2
    weight_filler {
      type: "gaussian"
      std: 0.01
    }
    bias_filler {
      type: "constant"
      value: 0
    }
  }
}
layers {
  bottom: "fc2"
  bottom: "label"
  top: "loss"
  name: "loss"
  type: SOFTMAX_LOSS
}
state {
  phase: TRAIN
}
I1126 21:27:14.470595 19980 net.cpp:67] Creating Layer data
I1126 21:27:14.470607 19980 net.cpp:356] data -> data
I1126 21:27:14.470641 19980 net.cpp:356] data -> label
I1126 21:27:14.470655 19980 net.cpp:96] Setting up data
I1126 21:27:14.470664 19980 hdf5_data_layer.cpp:57] Loading filename from /home/leon/enas907/proj/data/train.txt
I1126 21:27:14.470764 19980 hdf5_data_layer.cpp:69] Number of files: 2
I1126 21:27:14.470774 19980 hdf5_data_layer.cpp:29] Loading HDF5 file/home/leon/enas907/proj/data/train.h5
I1126 21:27:14.471783 19980 hdf5_data_layer.cpp:49] Successully loaded 7500 rows
I1126 21:27:14.471798 19980 hdf5_data_layer.cpp:81] output data size: 10,4,1,1
I1126 21:27:14.471812 19980 net.cpp:103] Top shape: 10 4 1 1 (40)
I1126 21:27:14.471819 19980 net.cpp:103] Top shape: 10 1 1 1 (10)
I1126 21:27:14.471828 19980 net.cpp:67] Creating Layer fc1
I1126 21:27:14.471834 19980 net.cpp:394] fc1 <- data
I1126 21:27:14.471844 19980 net.cpp:356] fc1 -> fc1
I1126 21:27:14.471854 19980 net.cpp:96] Setting up fc1
I1126 21:27:14.472256 19980 net.cpp:103] Top shape: 10 40 1 1 (400)
I1126 21:27:14.472287 19980 net.cpp:67] Creating Layer relu1
I1126 21:27:14.472302 19980 net.cpp:394] relu1 <- fc1
I1126 21:27:14.472308 19980 net.cpp:345] relu1 -> fc1 (in-place)
I1126 21:27:14.472327 19980 net.cpp:96] Setting up relu1
I1126 21:27:14.481534 19980 net.cpp:103] Top shape: 10 40 1 1 (400)
I1126 21:27:14.481573 19980 net.cpp:67] Creating Layer fc2
I1126 21:27:14.481580 19980 net.cpp:394] fc2 <- fc1
I1126 21:27:14.481590 19980 net.cpp:356] fc2 -> fc2
I1126 21:27:14.481611 19980 net.cpp:96] Setting up fc2
I1126 21:27:14.481628 19980 net.cpp:103] Top shape: 10 2 1 1 (20)
I1126 21:27:14.481647 19980 net.cpp:67] Creating Layer loss
I1126 21:27:14.481652 19980 net.cpp:394] loss <- fc2
I1126 21:27:14.481658 19980 net.cpp:394] loss <- label
I1126 21:27:14.481667 19980 net.cpp:356] loss -> loss
I1126 21:27:14.481686 19980 net.cpp:96] Setting up loss
I1126 21:27:14.481720 19980 net.cpp:103] Top shape: 1 1 1 1 (1)
I1126 21:27:14.481725 19980 net.cpp:109]     with loss weight 1
I1126 21:27:14.481758 19980 net.cpp:170] loss needs backward computation.
I1126 21:27:14.481776 19980 net.cpp:170] fc2 needs backward computation.
I1126 21:27:14.481796 19980 net.cpp:170] relu1 needs backward computation.
I1126 21:27:14.481799 19980 net.cpp:170] fc1 needs backward computation.
I1126 21:27:14.481804 19980 net.cpp:172] data does not need backward computation.
I1126 21:27:14.481809 19980 net.cpp:208] This network produces output loss
I1126 21:27:14.481817 19980 net.cpp:467] Collecting Learning Rate and Weight Decay.
I1126 21:27:14.481835 19980 net.cpp:219] Network initialization done.
I1126 21:27:14.481840 19980 net.cpp:220] Memory required for data: 3484
I1126 21:27:14.482056 19980 solver.cpp:151] Creating test net (#0) specified by net file: /home/leon/enas907/proj/train_val.prototxt
I1126 21:27:14.482091 19980 net.cpp:275] The NetState phase (1) differed from the phase (0) specified by a rule in layer data
I1126 21:27:14.482175 19980 net.cpp:39] Initializing net from parameters: 
name: "Process Monitor"
layers {
  top: "data"
  top: "label"
  name: "data"
  type: HDF5_DATA
  hdf5_data_param {
    source: "/home/leon/enas907/proj/data/test.txt"
    batch_size: 10
  }
  include {
    phase: TEST
  }
}
layers {
  bottom: "data"
  top: "fc1"
  name: "fc1"
  type: INNER_PRODUCT
  blobs_lr: 1
  blobs_lr: 2
  weight_decay: 1
  weight_decay: 0
  inner_product_param {
    num_output: 40
    weight_filler {
      type: "gaussian"
      std: 0.01
    }
    bias_filler {
      type: "constant"
      value: 0
    }
  }
}
layers {
  bottom: "fc1"
  top: "fc1"
  name: "relu1"
  type: RELU
}
layers {
  bottom: "fc1"
  top: "fc2"
  name: "fc2"
  type: INNER_PRODUCT
  blobs_lr: 1
  blobs_lr: 2
  weight_decay: 1
  weight_decay: 0
  inner_product_param {
    num_output: 2
    weight_filler {
      type: "gaussian"
      std: 0.01
    }
    bias_filler {
      type: "constant"
      value: 0
    }
  }
}
layers {
  bottom: "fc2"
  bottom: "label"
  top: "loss"
  name: "loss"
  type: SOFTMAX_LOSS
}
layers {
  bottom: "fc2"
  bottom: "label"
  top: "accuracy"
  name: "accuracy"
  type: ACCURACY
  include {
    phase: TEST
  }
}
state {
  phase: TEST
}
I1126 21:27:14.482595 19980 net.cpp:67] Creating Layer data
I1126 21:27:14.482605 19980 net.cpp:356] data -> data
I1126 21:27:14.482614 19980 net.cpp:356] data -> label
I1126 21:27:14.482630 19980 net.cpp:96] Setting up data
I1126 21:27:14.482636 19980 hdf5_data_layer.cpp:57] Loading filename from /home/leon/enas907/proj/data/test.txt
I1126 21:27:14.482668 19980 hdf5_data_layer.cpp:69] Number of files: 1
I1126 21:27:14.482676 19980 hdf5_data_layer.cpp:29] Loading HDF5 file/home/leon/enas907/proj/data/test.h5
I1126 21:27:14.483686 19980 hdf5_data_layer.cpp:49] Successully loaded 2500 rows
I1126 21:27:14.483700 19980 hdf5_data_layer.cpp:81] output data size: 10,4,1,1
I1126 21:27:14.483707 19980 net.cpp:103] Top shape: 10 4 1 1 (40)
I1126 21:27:14.483714 19980 net.cpp:103] Top shape: 10 1 1 1 (10)
I1126 21:27:14.483724 19980 net.cpp:67] Creating Layer label_data_1_split
I1126 21:27:14.483729 19980 net.cpp:394] label_data_1_split <- label
I1126 21:27:14.483736 19980 net.cpp:356] label_data_1_split -> label_data_1_split_0
I1126 21:27:14.483747 19980 net.cpp:356] label_data_1_split -> label_data_1_split_1
I1126 21:27:14.483753 19980 net.cpp:96] Setting up label_data_1_split
I1126 21:27:14.483762 19980 net.cpp:103] Top shape: 10 1 1 1 (10)
I1126 21:27:14.483768 19980 net.cpp:103] Top shape: 10 1 1 1 (10)
I1126 21:27:14.483775 19980 net.cpp:67] Creating Layer fc1
I1126 21:27:14.483783 19980 net.cpp:394] fc1 <- data
I1126 21:27:14.483788 19980 net.cpp:356] fc1 -> fc1
I1126 21:27:14.483798 19980 net.cpp:96] Setting up fc1
I1126 21:27:14.483813 19980 net.cpp:103] Top shape: 10 40 1 1 (400)
I1126 21:27:14.483824 19980 net.cpp:67] Creating Layer relu1
I1126 21:27:14.483830 19980 net.cpp:394] relu1 <- fc1
I1126 21:27:14.483837 19980 net.cpp:345] relu1 -> fc1 (in-place)
I1126 21:27:14.483844 19980 net.cpp:96] Setting up relu1
I1126 21:27:14.483856 19980 net.cpp:103] Top shape: 10 40 1 1 (400)
I1126 21:27:14.483865 19980 net.cpp:67] Creating Layer fc2
I1126 21:27:14.483870 19980 net.cpp:394] fc2 <- fc1
I1126 21:27:14.483889 19980 net.cpp:356] fc2 -> fc2
I1126 21:27:14.483897 19980 net.cpp:96] Setting up fc2
I1126 21:27:14.483909 19980 net.cpp:103] Top shape: 10 2 1 1 (20)
I1126 21:27:14.483919 19980 net.cpp:67] Creating Layer fc2_fc2_0_split
I1126 21:27:14.483925 19980 net.cpp:394] fc2_fc2_0_split <- fc2
I1126 21:27:14.483932 19980 net.cpp:356] fc2_fc2_0_split -> fc2_fc2_0_split_0
I1126 21:27:14.483940 19980 net.cpp:356] fc2_fc2_0_split -> fc2_fc2_0_split_1
I1126 21:27:14.483948 19980 net.cpp:96] Setting up fc2_fc2_0_split
I1126 21:27:14.483955 19980 net.cpp:103] Top shape: 10 2 1 1 (20)
I1126 21:27:14.483961 19980 net.cpp:103] Top shape: 10 2 1 1 (20)
I1126 21:27:14.483968 19980 net.cpp:67] Creating Layer loss
I1126 21:27:14.483974 19980 net.cpp:394] loss <- fc2_fc2_0_split_0
I1126 21:27:14.483981 19980 net.cpp:394] loss <- label_data_1_split_0
I1126 21:27:14.483989 19980 net.cpp:356] loss -> loss
I1126 21:27:14.483996 19980 net.cpp:96] Setting up loss
I1126 21:27:14.484004 19980 net.cpp:103] Top shape: 1 1 1 1 (1)
I1126 21:27:14.484010 19980 net.cpp:109]     with loss weight 1
I1126 21:27:14.484020 19980 net.cpp:67] Creating Layer accuracy
I1126 21:27:14.484026 19980 net.cpp:394] accuracy <- fc2_fc2_0_split_1
I1126 21:27:14.484033 19980 net.cpp:394] accuracy <- label_data_1_split_1
I1126 21:27:14.484040 19980 net.cpp:356] accuracy -> accuracy
I1126 21:27:14.484048 19980 net.cpp:96] Setting up accuracy
I1126 21:27:14.484056 19980 net.cpp:103] Top shape: 1 1 1 1 (1)
I1126 21:27:14.484062 19980 net.cpp:172] accuracy does not need backward computation.
I1126 21:27:14.484068 19980 net.cpp:170] loss needs backward computation.
I1126 21:27:14.484074 19980 net.cpp:170] fc2_fc2_0_split needs backward computation.
I1126 21:27:14.484081 19980 net.cpp:170] fc2 needs backward computation.
I1126 21:27:14.484087 19980 net.cpp:170] relu1 needs backward computation.
…
